model/finnewmodel.ckpt (torch, 140235 bytes, 26 tensors)

feature_layer.0.weight f4 [16, 3, 3, 3]
000000 71 6a 9d 3d 02 31 be bd 89 9f f9 bd 61 0c 4b 3d
       0.07686318 -0.09286691 -0.12188632 0.049572352
000010 ce 8b 97 3d 9d 02 1a bb 4c 01 76 3d 4b df 0f be
       0.073997125 -0.0023500093 0.06005983 -0.14050023
000020 41 32 1e 3e 7f 6d 11 bb fd c8 0f 3e 79 86 37 be
       0.15448858 -0.002219051 0.14041515 -0.17922391
000030 cc c4 c3 bc 22 96 83 bd 6e 4b 1d 3d d5 1f ce 3c
       -0.023897551 -0.0642512 0.038402013 0.025161663
000040 38 7a 8d bc 8a ce e6 3d 33 89 15 3e d7 cd 76 3d
       -0.017270193 0.11269863 0.14603119 0.060254898
000050 60 47 6c 3c 55 ce ea bd ae f4 be 3b 60 6e fc bd
       0.014421314 -0.11465136 0.005827508 -0.1232574
000060 7b e0 5a 3e 18 91 53 3e ff b3 99 3d 3e fe c4 bd
       0.21374695 0.20660818 0.07505035 -0.09618805
000070 18 73 f6 3d 6f 8c 09 3e 6c e1 38 be f1 f9 30 be
       0.12033671 0.13432477 -0.18054742 -0.17282845
000080 f4 58 50 3d 8b 1a 2e 3b 37 5e ed bd 4b 9c a1 bd
       0.050866082 0.0026566114 -0.11590236 -0.07891139
000090 db 18 0f be 9d ea cf bd 60 28 7e 3d 28 31 2f be
       -0.13974325 -0.10152171 0.062050223 -0.17108595
0000a0 27 01 1e 3d aa 35 03 3e 8a 5f 67 3c 56 f8 5b be
       0.038575318 0.1281344 0.014121899 -0.21481451
0000b0 d3 c3 ea 3d c3 fc 97 bd 86 4c e5 bd 48 14 f3 bc
       0.11463132 -0.07421257 -0.11196236 -0.029672757
0000c0 35 ba 1f 3e aa 59 d7 bd 7e 42 ed 3c ba e7 92 bd
       0.15598376 -0.10515149 0.02896237 -0.071731046
0000d0 57 e5 cf 3d c2 79 bf 3d 2e 8a 8f 3c 76 53 ab bd
       0.10151165 0.09349395 0.017521944 -0.08365528
0000e0 d4 14 86 bd 73 9f be bd d6 3f b6 3d 32 37 d7 b9
       -0.065469414 -0.09307756 0.088988945 -0.0004104912
0000f0 1e cf 04 be 14 bc 27 be 1c c6 06 bd 20 63 2b 3e
       -0.12969634 -0.1638034 -0.032903776 0.16737032
000100 34 0b 43 ba b6 e6 80 bd e4 e7 1e 3e 7c d2 32 be
       -0.0007440329 -0.062940046 0.15518147 -0.17463106
000110 b0 6f 76 bc ba 32 0c be 5c 39 c4 bd a3 2a 88 3d
       -0.015041277 -0.13691226 -0.09581253 0.06648757
000120 e2 1f 82 bc 67 cc 4a 3d 44 f4 b0 bc 7a 6f c8 3d
       -0.015884344 0.04951134 -0.02160085 0.097868875
000130 af 05 fa bd 39 04 86 3d ff a6 ae bd aa dc 55 be
       -0.12208115 0.06543774 -0.08527946 -0.20884958
000140 82 89 5e be aa 58 21 be 8a 4d a7 bd 1b 4d 3a 3e
       -0.21732143 -0.15756479 -0.08169086 0.18193476
000150 5f 77 58 3e f9 9a c4 bd 99 52 9c 3a 8b b0 81 3d
       0.21139286 -0.09599871 0.0011926471 0.06332501
000160 72 83 49 3c 13 ee fe bd f8 64 83 bc 48 0c c6 bd
       0.012299405 -0.12447753 -0.016039357 -0.09670311
000170 6b 50 0a 3e a4 1e 0e 3e 17 32 7c 3d 7c 4c 44 3e
       0.1350724 0.13878876 0.061571207 0.19169801
000180 68 80 71 bd ec 5c b7 3d 23 45 96 3d a7 44 38 3e
       -0.05896035 0.0895327 0.073374055 0.17994939
000190 cd 0c 28 3e ae e9 37 3c 42 be ba 3d 93 63 fb 3c
       0.16411133 0.011225147 0.0911832 0.03068713
0001a0 d5 f1 6a 3e 11 4d 6e 3d 2b 3f ce 3d 74 26 34 be
       0.22943814 0.058178965 0.10070642 -0.17592794
0001b0 c9 69 cf bd be 59 d1 bd e0 64 4f 3d 7b 0f 20 be
       -0.10127599 -0.10222195 0.05063331 -0.15630905
0001c0 f2 c1 58 be e4 ec 9d bd cb ea c2 3d 83 ab ee 3c
       -0.21167734 -0.07711199 0.095174395 0.029134518
0001d0 d6 6c fe 3d e5 00 25 3d 35 c5 03 3e f1 7d e2 3d
       0.124231026 0.040284056 0.12868197 0.11059178
0001e0 a6 90 13 be 12 18 26 be fe 87 ef 3d b2 32 04 be
       -0.14410648 -0.1622012 0.1169586 -0.12909964
0001f0 1e c9 0a 3d 7d d9 47 bb 39 88 f9 bd 7b 0c 43 bb
       0.033883207 -0.0030494623 -0.121841855 -0.0029762078
000200 97 87 58 be 8f cc ad bc ff 15 32 be e2 67 ff 3d
       -0.21145473 -0.021215705 -0.17391203 0.12470986
000210 1d b6 e7 bc 53 83 12 3c 2f 27 32 be fa 1b 3b 3d
       -0.02828508 0.008942443 -0.1739776 0.045680977
000220 cb a1 e7 3d 1d 00 34 3e 4c 9b 99 3c 8b ab 66 bd
       0.113101564 0.17578168 0.01875081 -0.05631594
000230 3d 18 56 3b 0a 99 99 3d 10 58 ed 3d 9b 47 48 be
       0.0032668256 0.07499893 0.11589062 -0.19558565
000240 4a 90 3e 3e 3c 11 09 be a2 1e a3 3d e6 3a eb 3d
       0.1860973 -0.1338548 0.07964827 0.11485843
000250 74 47 4d bd 25 a0 16 be 67 96 18 bd 78 60 b8 3d
       -0.05011697 -0.14709528 -0.03725281 0.09002775
000260 3a 8d c4 bc f7 75 52 bd 96 dc da 3d 23 0f bf bd
       -0.023993123 -0.05138203 0.10686605 -0.09329059
000270 30 10 3f be d7 66 a8 bd c9 d5 9b bc 0e ee bb 3d
       -0.18658519 -0.0822274 -0.01902284 0.09176265
000280 78 13 b3 bd bd 6c 4a bd 27 b8 29 3e 3e 30 1b 3e
       -0.08743948 -0.049420107 0.16574155 0.15155122
000290 2e 46 8a bd eb be 22 be 08 43 16 be 1e 04 04 be
       -0.06751667 -0.15893142 -0.14674008 -0.12892196
0002a0 99 84 f3 bd c9 d4 27 be 4f 62 47 bc b7 3a 03 be
       -0.11890525 -0.16389765 -0.012169435 -0.12815367
0002b0 e1 7a c7 3d fd 88 90 bd 73 37 92 3d 01 ba 37 3d
       0.09740234 -0.070573784 0.07139482 0.04485512
0002c0 0e b5 a1 bd b1 3f 0a be ff 6d 09 be 2e 8c 44 3d
       -0.078958616 -0.13500859 -0.13420866 0.04798525
0002d0 f9 20 69 3d 3e 8a 8e bd e2 fa 7b bb 1c 73 d6 3b
       0.05691621 -0.06959961 -0.0038449098 0.006544484
0002e0 93 6d e3 ba cd 22 dd 3d f7 7b 96 bd 21 a3 4b be
       -0.0017351381 0.10797653 -0.07347863 -0.19886447
0002f0 c5 1f 2d be 00 3d c9 3a 06 63 55 3d ec cc 81 3d
       -0.1690665 0.0015353262 0.05209639 0.06337914
000300 bd b2 9f 3d c0 a7 eb 3d 93 a5 1e 3d 3c b9 11 3d
       0.077977635 0.11506605 0.038732123 0.035577044
000310 36 09 0e 3d 38 a0 44 3e d6 b2 0a 3e 79 8a 1a be
       0.034676753 0.19201744 0.13544783 -0.15091886
000320 62 73 05 3c 8c 72 d6 bd c3 d3 e0 bd 7d 39 7c 3d
       0.008145185 -0.10471067 -0.1097789 0.061578263
000330 55 bd b4 bd 1c 7a 1a bc 64 45 4b 3b 23 c7 18 be
       -0.08825175 -0.009428527 0.0031016702 -0.14919715
000340 6b 0c fe bd d5 9c 9f bd 13 46 28 be 69 01 32 be
       -0.12404712 -0.07793585 -0.16432981 -0.1738335
000350 cb 8c 3b 3e 1d 3a 13 3e 2f 43 f3 bc 34 0c 32 3d
       0.18315427 0.14377637 -0.029695122 0.04346867
000360 b4 6f b3 3b 5c bd fa bb c4 6e 29 3e 2f b5 b5 bd
       0.0054759625 -0.007651968 0.1654616 -0.08872449
000370 a5 c2 9b 3d a1 93 81 bb 52 ae cc 3d 02 83 27 be
       0.07605485 -0.0039543663 0.099941865 -0.1635857
000380 32 2e 87 3c c7 8d 31 3d 03 cd 04 3e 59 1a 15 3d
       0.01650152 0.0433481 0.12968831 0.03640208
000390 f4 08 e0 b9 36 e4 ab bd 5e b1 94 3d 3b 16 55 3c
       -0.0004273128 -0.08393137 0.072603926 0.013005788
0003a0 19 2e 38 be 02 0f c0 bd 96 93 20 3e ad 96 c6 3d
       -0.17986335 -0.093778625 0.156813 0.09696708
0003b0 c8 eb 16 be ef 53 75 bd b5 5a 1b be d4 ac 0c bd
       -0.14738381 -0.0598945 -0.1517132 -0.03434451
0003c0 70 a9 57 bd c3 96 7a bd 9c 4b c6 3d 3a 4a 22 be
       -0.052651823 -0.061178934 0.0968239 -0.15848628
0003d0 a6 fe 96 bc cf f1 47 3b 5a 83 1b 3d 75 72 a6 3d
       -0.018431973 0.003050912 0.037967063 0.081273
0003e0 17 67 c0 3d 47 86 32 bd cc 4a 2b be 3b 5e 31 be
       0.09394663 -0.043585088 -0.16727751 -0.17321102
0003f0 f7 26 ff 3c ff cf 1a be 94 67 cc bd 63 94 12 3d
       0.03114651 -0.15118407 -0.099806935 0.035786044

feature_layer.0.bias f4 [16]
000000 12 6c 84 bc 0d 3b f2 bc cc 9b 55 3e b7 ed 5a 3d
       -0.016164813 -0.029569173 0.20860213 0.05344936
000010 cc 72 2f 3c e3 94 c6 bd a7 c0 ba bd bd a3 32 be
       0.010708522 -0.09696367 -0.09118777 -0.17445274
000020 07 36 e3 bd ba 02 9c bd 96 4c d2 bd 24 69 27 be
       -0.11094289 -0.076177076 -0.10268514 -0.16348702
000030 0d 42 42 be 8b 97 80 3d 95 ea 2b 3d 40 7c 18 be
       -0.18970509 0.062789045 0.04197176 -0.14891148

feature_layer.1.weight f4 [16]
000000 6c 9a 7f 3f 5d e3 74 3f ea 05 77 3f b9 33 7c 3f
       0.99845004 0.9565943 0.964934 0.9851642
000010 23 97 7d 3f 15 bf 86 3f d6 89 7c 3f 74 d0 84 3f
       0.9905874 1.0527064 0.9864782 1.0376115
000020 52 79 78 3f 0b 0f 71 3f 64 28 80 3f 79 e3 80 3f
       0.9706012 0.9416358 1.0012326 1.0069419
000030 5c 3e 71 3f 94 be 86 3f 74 23 83 3f 04 be 7b 3f
       0.9423578 1.052691 1.0245194 0.98336816

feature_layer.1.bias f4 [16]
000000 98 10 41 3c 40 94 fb bc 2a df ac b8 8e ee f4 bc
       0.011783741 -0.03071034 -8.243167e-05 -0.029898908
000010 2d a8 a6 3c 4c ec b6 3d 2b f3 73 bc ce d3 93 3d
       0.020343864 0.08931789 -0.014889519 0.07218133
000020 b5 81 0f bd a3 d7 48 bd f2 99 2e bd c2 7f 8e 3c
       -0.035035808 -0.049033772 -0.042627282 0.017394904
000030 e7 90 63 bd 4a e9 4c 3d 85 94 2f bc 8f 51 fa bb
       -0.05555811 0.05002717 -0.010716562 -0.007639117

feature_layer.1.running_mean f4 [16]
000000 0a 8c 00 3e 5f 2f 3a be 13 12 28 bd 3c fe b4 3e
       0.1255342 -0.18182133 -0.041032862 0.35350215
000010 2c fc 65 be c9 07 c4 bd 60 b4 ba be cd be 32 be
       -0.22459477 -0.095717974 -0.3646574 -0.17455597
000020 be 2a 12 be 24 ff 5f be d1 20 59 be 27 b1 18 3e
       -0.14274117 -0.21874672 -0.21203925 0.14911328
000030 74 64 f4 be 32 cd 4e 3d 9d 8f 50 bd 5e f3 86 bd
       -0.4773289 0.05048866 -0.05091821 -0.06589387

feature_layer.1.running_var f4 [16]
000000 96 aa 91 3c 97 76 a9 3c 30 c2 62 3d 9c cf a1 3d
       0.017781537 0.02068643 0.055360973 0.079009265
000010 8f dd 47 3d e6 34 77 39 91 da 86 3d 78 ed a5 39
       0.04879528 0.00023575462 0.06584657 0.0003164818
000020 31 6b a0 3a c6 81 93 3c b3 a1 2b 3c e8 61 b0 3d
       0.0012238977 0.018006217 0.010475564 0.08612424
000030 81 1c 96 3d 1e ab f7 39 7d 9e 0b 3c fa df c9 3b
       0.073296554 0.00047239003 0.008521673 0.0061607333

feature_layer.3.weight f4 [16, 16, 3, 3]
000000 80 0c 3b bd 28 fe 80 bd ac a9 88 bc 06 a1 d6 3c
       -0.045666218 -0.062984765 -0.016682468 0.026199829
000010 0a ee 04 3d 85 e9 10 3d d9 0b a2 3d 9c 0a 28 bd
       0.032453574 0.03537895 0.07912416 -0.041025743
000020 f6 1d 17 3d e0 d0 81 bd af 40 92 bc a9 ed 8d 3b
       0.036893807 -0.06338668 -0.01785311 0.00433131
000030 7e d5 0b bd da af 79 ba f8 24 7c bd 72 30 80 bc
       -0.03413915 -0.00095248 -0.061558694 -0.0156481
000040 6a 5e b4 bd 0e db 80 3d 52 2d 96 3d 7f cc 86 bd
       -0.088070706 0.06291781 0.07332863 -0.06581973
000050 9a 82 6a bd 03 f9 79 3d 5c 29 d6 bb 3f 63 2c 3d
       -0.057253458 0.06102849 -0.006535692 0.042086836
000060 c9 09 2c 3d d4 76 22 bd 7b 73 1e 3d ab f3 ad bd
       0.04200152 -0.039664105 0.03868435 -0.084937416
000070 24 39 bc bd 2c 15 70 3d ee a2 bd 3c f2 73 94 3d
       -0.09190586 0.05861394 0.02314898 0.07248677
000080 48 03 9f 3d 66 5a 23 bd 47 68 45 bd e2 64 05 bd
       0.07764298 -0.039881133 -0.04819515 -0.032566912
000090 34 3e 62 bc 02 e4 44 bd 72 7b a5 bd 6e a2 da bd
       -0.013808776 -0.048069008 -0.08080186 -0.10675512
0000a0 26 78 83 bd 3f 14 34 bd bd e1 39 bd 02 e3 0d b9
       -0.06419401 -0.04396462 -0.045381296 -0.00013531375
0000b0 b9 a5 bb bc 61 70 4a bd e2 85 20 3d e7 6f de bc
       -0.022906171 -0.04942358 0.03919018 -0.027152969
0000c0 af 32 5f bd a9 8c 8e bd eb e6 18 be 79 ab 25 be
       -0.054491695 -0.069604225 -0.14931838 -0.16178693
0000d0 48 bc ab bb a7 01 f4 bd 90 4b cf 3a 94 05 85 3c
       -0.0052409507 -0.11914378 0.0015815366 0.016238011
0000e0 b2 b3 76 bd 7f 27 de 3c cf 6e 38 3c 98 a7 06 3c
       -0.060229965 0.027118443 0.011256888 0.008218668
0000f0 f1 25 27 3d 46 87 8d bc 79 74 3d bc de 4b 69 3d
       0.040807668 -0.017276417 -0.011563414 0.05695712
000100 9a 39 d6 3d 40 78 b5 3d c8 61 a3 3c fc d6 b4 3d
       0.104602054 0.088608265 0.019944087 0.088300675
000110 f2 f4 d0 3d 0f 56 f0 3d 27 d9 81 bd 35 16 b4 3d
       0.102029696 0.117351644 -0.06340247 0.08793298
000120 7b c8 45 3d ea b1 67 bd 3a 34 0e bd db fb a8 3d
       0.048286896 -0.056566156 -0.034717776 0.082511626
000130 cd db a3 bc c1 dc e9 3b f7 c6 90 bc 93 32 f2 bc
       -0.02000227 0.0071369116 -0.017672999 -0.029565131
000140 46 33 03 3d d1 2f 63 bd 9f 70 72 bb 4e 79 58 bd
       0.03203132 -0.055465523 -0.0036993397 -0.05285006
000150 3b 30 90 bd 70 89 1c bc e7 20 da bc 4b fe 81 bc
       -0.07040449 -0.009554252 -0.026627017 -0.015868327
000160 49 3c c3 bd 63 f9 3b bd 83 bb a7 bc d9 7a c5 bd
       -0.09532983 -0.04589213 -0.020475155 -0.09642572
000170 21 c0 af bd 40 dd 37 3d 75 bc 09 bd 10 b5 5a bd
       -0.085815676 0.044888735 -0.033626992 -0.05339533
000180 59 a1 07 bd 28 0c 86 bd 69 71 e0 bd 18 28 94 3a
       -0.033112857 -0.06545287 -0.10959131 0.0011303453
000190 d4 fb 16 bd b8 ad 9c bd 7b 62 cf 3c 60 0b 8d 3d
       -0.036861256 -0.07650322 0.025315514 0.06886935
0001a0 93 80 9b 3d 81 c2 a2 bd 1e 5d 43 bc 48 3b 31 bd
       0.07592883 -0.07947255 -0.011924056 -0.043269426
0001b0 11 0f 50 bd b8 6b 88 bc a3 b4 25 bb 9d 95 89 bd
       -0.05079562 -0.016652927 -0.002528467 -0.067179896
0001c0 94 37 b8 bd d9 58 16 bd cf a1 e5 3c a8 60 e3 3c
       -0.08994976 -0.036705825 0.028031258 0.02775605
0001d0 84 cb 61 bd 9c 6f 94 bd 80 33 33 3d 55 6d 84 bc
       -0.05512573 -0.0724785 0.043750286 -0.016165415
0001e0 26 0d 03 3d 33 e8 73 bc 9f 97 2c bd 07 e7 9e bd
       0.03199496 -0.014886904 -0.042136785 -0.07758909
0001f0 4a 32 a2 bb 3f 15 f8 bd b9 02 d5 3c d9 29 a6 3c
       -0.0049498426 -0.12113427 0.026002275 0.020283626
000200 dc 00 a9 bd bc 5b 20 3d 4d 1a 64 bd 5c f6 a2 3c
       -0.08252117 0.039149985 -0.055689145 0.019892864
000210 67 f5 60 bb c2 8e 77 bd 9f cd d4 bd d9 b2 db bc
       -0.0034325959 -0.06043888 -0.103907816 -0.02681868
000220 ed c4 89 3d c4 ea 30 3d 2c 05 ec 3c fd d9 98 bd
       0.06727014 0.04319264 0.02881106 -0.07463453
000230 2c f7 b3 bc 83 cd a9 bc 9b a4 9e bd 88 7f 81 bd
       -0.021968447 -0.020727878 -0.0774624 -0.06323153
000240 7e 83 0e bd 0c e4 4c 3d 13 e8 79 3d a1 80 0e 3c
       -0.03479337 0.05002217 0.06101234 0.00869766
000250 61 5c 95 bd 56 95 ab bd b6 ef 24 bc 85 f0 5c bd
       -0.072930105 -0.08378093 -0.010066917 -0.053940315
000260 dc 8a cc bc c9 b9 86 3d bb 21 a4 bc ea 1a 2f bd
       -0.024968557 0.065784045 -0.020035615 -0.042750277
000270 30 ed 00 bd cd 83 02 bd 62 2a 2b 3d f2 91 c9 bc
       -0.0314762 -0.031863976 0.041788466 -0.024605725
000280 0d a7 d3 3c e8 4f 95 3d d6 4f 37 bd 32 e5 a4 3c
       0.025836492 0.072906315 -0.04475387 0.02012882
000290 87 3e 3a bd ca f9 99 3d a7 4b 0d bc 5d e0 98 bc
       -0.045469787 0.075183466 -0.008623994 -0.018661672
0002a0 f4 47 8e bd 8b c2 22 3d f3 c5 53 3d 2a bc 39 bc
       -0.06947318 0.039736312 0.05170245 -0.011336366
0002b0 4d 53 08 3d a7 a0 a2 3d b1 d4 3b 3d 77 2b 8a 3d
       0.033282567 0.07940798 0.045857135 0.067465715
0002c0 5d ee 22 bd 27 5f 3a bd 0c 65 39 bc 53 26 29 bd
       -0.039778102 -0.0455009 -0.011315595 -0.041296314
0002d0 eb b5 6c 3b 16 f0 9b 3d 9b 4d 75 3d 1b 55 61 bd
       0.0036119174 0.07614152 0.059888463 -0.055012804
0002e0 3f d4 96 bd d8 ed 2f bd 25 ca df bc 67 24 22 3d
       -0.073647015 -0.042951435 -0.02731807 0.039585497
0002f0 99 1e a2 bd 38 f5 10 bd 92 86 64 bd da 21 66 bd
       -0.07915992 -0.03539011 -0.0557924 -0.056184627
000300 1b 1d f5 bd e6 03 dc bd d3 ee d2 bd 0d 80 d9 bd
       -0.11968442 -0.10742931 -0.10299458 -0.10620127
000310 4c 3b 5e bc 22 2d 54 bc 24 95 bf bc 63 8d 16 3b
       -0.013563942 -0.012950214 -0.023386545 0.0022972457
000320 05 0f 52 bd 92 3a 73 3d 96 63 98 bd 60 4f 39 3d
       -0.051283855 0.05938203 -0.074408695 0.045241714
000330 58 61 50 bd fb f2 29 3d 16 f7 8c bd 5d 9a 0e 3d
       -0.050874084 0.04149149 -0.068830654 0.03481518
000340 08 4f 6a bd 4c 77 67 3d 73 6e 46 bc 7e 6f 8c bd
       -0.057204276 0.056510255 -0.012111294 -0.06857203
000350 85 4c 6f 3d 4b 90 97 bc 79 52 25 3d 52 89 14 bd
       0.058422584 -0.018501421 0.040361855 -0.03626377
000360 52 25 30 bc 4a c0 08 3d f0 68 ab bd cf d7 14 bc
       -0.010751085 0.033386506 -0.083696246 -0.009084656
000370 65 76 dc 3c 6f dd fb bc 23 e6 77 bd 7c 44 96 bd
       0.026911924 -0.030745236 -0.06052221 -0.07337281
000380 9b 53 93 bd 86 60 98 bd 61 88 33 3d c1 39 f1 bc
       -0.07193681 -0.074402854 0.043831233 -0.029446485
000390 90 da af ba ae da 62 3d 21 27 ea 3c af c3 b7 bd
       -0.0013416577 0.05538433 0.028583111 -0.089728706
0003a0 c0 3a 76 3c 34 28 97 bc 6b 4f 9f bd 43 1f 02 3c
       0.0150286555 -0.018451788 -0.0777882 0.007942024
0003b0 1d 98 36 bd db ae 07 3d 08 90 90 bd 06 86 32 bd
       -0.04457866 0.03312574 -0.07058722 -0.043584846
0003c0 cc f2 fa bc f8 7d 66 bd 80 e1 96 ba 0b 44 4b bd
       -0.030633353 -0.056272477 -0.0011511296 -0.049625438
0003d0 67 11 2f 3d 40 d2 42 3c 9a dd 96 bd cb f1 56 3d
       0.042741206 0.011890948 -0.07366486 0.052476685
0003e0 a6 54 5f 3d 62 2c 83 bd fd bd 15 bc 4b 0a a2 bd
       0.054524086 -0.0640495 -0.009139535 -0.079121195
0003f0 ee 53 d6 3c 19 2a 89 bd 56 c0 e8 3a c4 99 57 3d
       0.026163068 -0.066974826 0.0017757516 0.052636877

feature_layer.3.bias f4 [16]
000000 cd 9f a0 bd 4f 4f 1a 3c 54 64 00 3c 33 6f 1c 3c
       -0.078429796 0.009418323 0.00783642 0.009547996
000010 f1 c2 4b 3c 75 0e 68 3d 99 69 65 3d 70 36 2e 3d
       0.012436614 0.056654412 0.05600891 0.042532384
000020 bb ca b6 3d b0 90 44 bd 47 77 33 bb 92 f3 15 3d
       0.089253865 -0.047989547 -0.0027384327 0.03660924
000030 03 31 69 bd ac 52 11 bd 4e b4 3c 3d 65 22 ab bb
       -0.056931507 -0.035479233 0.04607039 -0.005222606

feature_layer.4.weight f4 [16]
000000 81 e0 80 3f 73 76 80 3f d8 29 7c 3f 28 f2 7c 3f
       1.0068513 1.0036148 0.9850135 0.98807
000010 34 6c 80 3f f5 37 81 3f ff ff 86 3f 24 6e 83 3f
       1.0033021 1.0095202 1.0546874 1.0267987
000020 b0 ac 80 3f e8 82 83 3f f1 1f 81 3f 4f a9 6f 3f
       1.00527 1.0274324 1.0087873 0.9361772
000030 34 76 70 3f a7 ad 76 3f 5d 74 80 3f de 7d 7d 3f
       0.93930364 0.9635872 1.0035511 0.99020183

feature_layer.4.bias f4 [16]
000000 a9 db 04 bb cc 13 02 bd 03 e1 8c bc 54 3e 58 3c
       -0.002027253 -0.03175716 -0.017197138 0.013198454
000010 b4 e7 1c 3c 05 3f f5 3c 8d 81 f8 bc 0f c7 ef bd
       0.009576727 0.029937277 -0.030335212 -0.11707889
000020 d3 be 12 bc 28 04 a1 bc 37 39 b4 3c f7 73 b4 bd
       -0.008956629 -0.019655302 0.021999938 -0.08811181
000030 87 ce 63 bd 43 b8 d8 ba b1 40 52 3c 57 6a 4e bd
       -0.05561688 -0.0016534406 0.012832806 -0.050394382

feature_layer.4.running_mean f4 [16]
000000 cf 73 7a bf 39 6a 70 bf fb da 9b 3e cb 48 62 bd
       -0.9783296 -0.9391208 0.30440506 -0.055245202
000010 6f 82 46 be 6c b6 f6 be 05 32 ed 3e 3e 5a 90 3e
       -0.19385694 -0.48186052 0.46327224 0.2819385
000020 f2 85 1d 3e 0b 61 4e bc 4c 39 37 3e 57 e3 11 3e
       0.15383127 -0.012596379 0.17892951 0.1424688
000030 5f 11 9d be cc 68 89 bf 68 a4 21 3e 71 20 1b 3d
       -0.30677316 -1.0735106 0.15785372 0.037872735

feature_layer.4.running_var f4 [16]
000000 6a 9c 2d 3f 1b c7 bd 3e 6b 5e 4e 3f 3e cd fc 3e
       0.67816794 0.37065968 0.8061282 0.49375337
000010 4a 62 3e 3e 33 d2 14 3f c3 52 b5 3e b6 eb 52 3e
       0.18592182 0.5813324 0.35414705 0.20597729
000020 a4 04 3b 3e 4b c7 d6 3f 56 8f 3e 3e 88 5e f7 3d
       0.18263489 1.6779569 0.18609366 0.12078577
000030 70 4b 67 3f 36 40 b2 3f 6f d8 fa 3e 7b 1c 32 3e
       0.90349483 1.3925846 0.4899325 0.17393677

feature_layer.7.weight f4 [32, 16, 3, 3]
000000 67 49 8c 3c f4 99 17 ba b2 47 9c 3d 48 51 2b bc
       0.017124845 -0.00057831337 0.07630862 -0.010456391
000010 99 cf 05 3d 54 0a fb bc a2 4f f6 bc 78 8d 23 bc
       0.032668684 -0.030644573 -0.030067269 -0.009982459
000020 d7 57 82 bc a3 76 0f 3c 93 8a 8a 3d 26 e8 ad 3d
       -0.015911026 0.008756313 0.06764712 0.084915444
000030 9c 2f 79 bb cb 7e a8 bc 9f ef 4e 3c 9c bd 80 bd
       -0.0038022762 -0.020568272 0.012630372 -0.06286165
000040 e5 a9 c8 3d 06 fc 09 3d ea 46 a7 3d e8 a4 95 bd
       0.0979803 0.033687614 0.08167823 -0.07306844
000050 cb 6f 21 3d 70 0f 4c bc 60 bf a3 bd 25 14 b2 bb
       0.039413255 -0.012454852 -0.07995486 -0.0054345303
000060 51 7a 98 bd 2e c8 8d 3c 65 b7 9a 3c 24 49 be bc
       -0.07445205 0.017307367 0.018886277 -0.023228236
000070 9b 98 7f bd 23 a8 57 bd 8b b2 4b bd 08 7c f4 3b
       -0.062401395 -0.052650582 -0.04973082 0.0074610747
000080 7a f8 eb bc 62 a9 53 3c 25 36 a5 3c ec 93 2f bd
       -0.028805006 0.012918802 0.02016742 -0.04286568
000090 3f 7c 9e bd 83 02 9b bd 78 5f 36 3c 67 9d 27 3d
       -0.07738542 -0.075688384 0.01113116 0.040921595
0000a0 12 2e b5 bc 56 fe c4 bc 4e a6 a2 bd 53 80 dd 3a
       -0.022116695 -0.024047058 -0.07941876 0.0016899206
0000b0 4e 7c 6d 3b 14 fe 2f 3d 14 c8 f1 3c 5e df 59 bd
       0.0036237421 0.042966917 0.02951435 -0.053191535
0000c0 79 8a ad bd d5 3c b9 bc 36 0b cc 3d 5e 9b d5 3c
       -0.08473677 -0.022612015 0.09963076 0.026075061
0000d0 49 1e 63 3d 2a 6a d2 bb 97 9d a2 3b 8d 9f de bd
       0.055448804 -0.006421347 0.004962634 -0.10870276
0000e0 2e cb bb 3c 28 af 9b 3b 5a 35 e2 bd e1 84 12 be
       0.022924032 0.004751105 -0.11045332 -0.14308502
0000f0 c7 52 fc bc 60 d0 b4 bb 44 54 07 be 1d 9b e6 bb
       -0.03080119 -0.0055180043 -0.13215739 -0.007037534
000100 49 02 27 bd 15 1e d6 3d fb 25 8c 3d 2b ac 52 bc
       -0.040773664 0.104549564 0.06843182 -0.012858431
000110 39 37 2e 3d 70 49 7e b8 4f cf 52 bd 40 25 3c bd
       0.042533133 -6.0626713e-05 -0.051467236 -0.045933962
000120 e4 c8 29 bc 79 1f 2a 3c 81 ef cc 3d 5b fe 04 bd
       -0.010362837 0.01038348 0.10006619 -0.032469135
000130 ba 55 d4 bc 53 ea 2a bc 3e a3 86 3d 0b 66 79 3d
       -0.025919784 -0.010431844 0.06574105 0.06088833
000140 0d aa 4a bd 7c a8 48 bc 44 8d 45 3d 35 02 9a bc
       -0.04947858 -0.012247201 0.048230425 -0.01879988
000150 9f 62 50 bc aa 83 9a 3d 85 04 65 bd 23 3f a6 3d
       -0.012718826 0.07544644 -0.055912513 0.08117511
000160 32 86 a5 bb b0 98 ee 3b 3f b9 d2 bc 06 7d 46 3d
       -0.0050513977 0.0072813854 -0.025723098 0.048459075
000170 da 96 c6 bc 27 6a db 3b 26 e7 ae 3d ae 58 6b 3d
       -0.024241854 0.006696004 0.08540182 0.05745762
000180 d8 85 b5 3d bd f0 9b bc ce f4 94 bc ce c3 be 3d
       0.08863419 -0.019035691 -0.018183138 0.093146905
000190 94 89 3d bd dd f4 60 bd 91 8d e8 3c 4c ec 97 3d
       -0.046273783 -0.05492102 0.028387817 0.07418117
0001a0 cb d3 a8 bb c6 f0 6b 3d 13 45 6c bc b0 8d cd bc
       -0.005152201 0.057602666 -0.014420765 -0.025091976
0001b0 5c 11 d3 3b c4 06 4c 3d 6c ae 6f 3d 5c 90 a2 bd
       0.0064412784 0.04981114 0.05851595 -0.079376906
0001c0 9c dd a9 bd 0c 65 2a 3d ac 4c b0 bd 6f 93 71 3d
       -0.08294222 0.041600272 -0.08608374 0.058978494
0001d0 9e d5 ae bd ee 7e 05 3b 3d d8 f7 3c cd f5 e2 3d
       -0.08536838 0.0020369845 0.030254478 0.11082039
0001e0 83 d7 01 be 4e 3b cc 3c c1 35 1b bd a9 0b c6 bd
       -0.12679867 0.024930622 -0.03789306 -0.09670193
0001f0 34 e3 f1 bd a1 85 aa ba af 43 dd 3d fb ba 57 3d
       -0.11810914 -0.0013009795 0.10803925 0.052668553
000200 56 b1 87 bd e2 2f 87 3d e3 c8 4f 3d 4b d0 75 bd
       -0.06625621 0.0660093 0.05072869 -0.060013097
000210 92 2a f2 bc 12 75 16 3d b1 a5 9d bd f8 83 c0 3c
       -0.029561315 0.03673274 -0.07697619 0.023500428
000220 fa fb 33 bd 85 a7 97 bd 7c 5c 0a bc 3e 0e 4a 3d
       -0.043941475 -0.07404999 -0.008444902 0.04932999
000230 cb 77 a5 bd 19 aa 56 bd f6 95 94 3d 54 7a b5 bc
       -0.08079489 -0.05240831 0.07255165 -0.022153057
000240 b2 26 ef bc 06 78 5e 3a f0 51 6a bd 0f 17 82 bd
       -0.029193256 0.0008486513 -0.057207048 -0.06352054
000250 2f 34 06 3d 0d 0f 1f bb 1d 7e 66 bd ee d3 a7 3c
       0.03276461 -0.0024270446 -0.056272615 0.020486798
000260 db c8 57 bc db 7c 5a bd 71 bb 81 bd 59 49 bc 3c
       -0.013170446 -0.053341728 -0.0633458 0.022984194
000270 5a 19 63 bd 8b 6c bb bd 03 bb 85 bc 7e 9a 1d bd
       -0.0554441 -0.09151562 -0.016324526 -0.038477413
000280 71 16 25 3d 4b 0c 0f 3c 50 07 67 bc 99 4e 43 bd
       0.040304605 0.008730958 -0.0141008645 -0.04768238
000290 91 0d ec 3c 9b c7 b1 3d 1d fb 72 3d 6f 19 f6 3c
       0.028815063 0.0868065 0.05932151 0.030041425
0002a0 5e 79 05 3d 47 4b 40 bd e6 cb e6 3d 01 82 c3 bd
       0.032586448 -0.04694679 0.11269359 -0.09546281
0002b0 8b 14 c6 bd f2 3a b9 bc 08 ea c7 bc cd 98 8f bd
       -0.09671887 -0.022611115 -0.024403587 -0.07011566
0002c0 f2 b4 15 3d ee 27 8f bc 8d 43 0f 3c 16 b9 eb 3c
       0.036549516 -0.017475095 0.008744133 0.02877478
0002d0 ab 3a 0d bc cb 5f 18 3d 36 b1 d3 3c 61 89 f8 bb
       -0.008619945 0.03720073 0.025841337 -0.007584736
0002e0 49 af c8 bc 73 27 5d 3d dd 69 9a bd d5 c2 70 3d
       -0.024497645 0.0539927 -0.07539723 0.058779556
0002f0 6c 2d 34 bd 5d fa 9c bd 25 03 0c 3d 1d 73 24 bd
       -0.04398863 -0.076649405 0.034182686 -0.040148843
000300 e1 6b 36 3d e4 82 53 3d a2 59 78 3d 50 7a 2d 3c
       0.044536475 0.0516385 0.060632356 0.010588244
000310 b2 e1 c9 bd 3a 1e e5 bd c7 ca 08 3d d0 44 cc 3c
       -0.09857501 -0.11187406 0.03339651 0.024935156
000320 0c e5 73 bd a1 ab c7 bc ba 30 39 bd 98 4f 02 bd
       -0.059544608 -0.024373831 -0.045212485 -0.031814188
000330 6d dc 8a 3d 1c d2 94 3d 72 01 46 3d e1 6e b6 3d
       0.06780324 0.07266638 0.048341222 0.08907867
000340 c9 07 0f bd 59 db cb bc 6d ba f5 3c da 10 49 3d
       -0.034919534 -0.024884867 0.029996121 0.049088337
000350 1e 39 a0 3c 13 bd 95 3c 1e 93 f8 bb 28 7d 43 bd
       0.019558486 0.018278634 -0.007585897 -0.04772678
000360 0e 02 9a bd 09 eb 77 3d c4 f4 ef 3c c9 77 78 bd
       -0.07519923 0.06052688 0.029291518 -0.06066111
000370 4b e3 43 bd c9 59 c0 3d 87 24 c4 3b 71 fb b2 bc
       -0.047824185 0.09392125 0.0059857997 -0.021848412
000380 f7 c1 ed 39 b6 25 90 3d 4e 32 8c 3d 15 ee 61 bd
       0.00045348678 0.07038443 0.06845532 -0.055158693
000390 d9 52 c3 ba fd 1b 4b bc d6 4d 77 bd 66 04 8a 3b
       -0.001490201 -0.01239681 -0.060376965 0.00421195
0003a0 95 ab e8 bb 74 f3 66 bd 34 39 42 bd 8d 3f a2 bd
       -0.0071005323 -0.05638452 -0.047417834 -0.079222776
0003b0 70 88 a2 3c af 61 98 bd a3 e9 9f bc 01 05 fa bc
       0.01984045 -0.07440507 -0.019520586 -0.030519964
0003c0 16 1b c0 3c be d4 a7 3d ed 40 b3 3d c7 ac bb 3d
       0.023450416 0.08194874 0.08752618 0.09163814
0003d0 cc ed a4 3c 4a 07 c3 3d ac 94 17 3d cb 80 80 bd
       0.020132922 0.09522875 0.03700702 -0.06274565
0003e0 2c b8 27 3d 87 b3 4e 3d 3c 4a a3 3d 32 eb 96 bd
       0.040947124 0.05046418 0.079731435 -0.07369079
0003f0 b3 29 4f bc 91 01 3e bd fd 77 82 3d b9 07 2f bd
       -0.012644219 -0.046388213 0.06370542 -0.042731974

feature_layer.7.bias f4 [32]
000000 ac 29 8d 3d d9 04 44 3d fd 51 7a 3d 90 09 a9 3d
       0.06892714 0.047856186 0.061113346 0.08253777
000010 a6 e4 78 bd dd 2b 57 bd c9 f5 86 3c 02 c4 ab bd
       -0.06076493 -0.052532066 0.016474621 -0.08386995
000020 72 cc 60 bd 22 40 c5 3c 19 e3 52 bd d3 1e 2f bd
       -0.054882474 0.024078432 -0.05148611 -0.042754006
000030 20 bd bc 3d 9a e7 29 3d ad 8c 66 bd 44 cb 9b 3c
       0.0921576 0.041480638 -0.056286503 0.019017823
000040 24 15 bc bb 0d a2 ee 3b 4c 88 1d 3c 44 81 f3 3c
       -0.005739825 0.0072825016 0.009615015 0.029724725
000050 45 8b 8c 3d 87 6c 9b bd f8 d0 41 3d af 49 f1 bb
       0.06862501 -0.07589059 0.04731843 -0.00736352
000060 98 1c 71 3d ee cd 94 bd 34 78 43 bd f2 5a 88 3d
       0.05886516 -0.072658405 -0.047722057 0.066579714
000070 bc e7 1f 3d 83 db 93 bd 78 04 09 bd 51 fc 37 bd
       0.03903936 -0.07219603 -0.033451527 -0.044918362

feature_layer.8.weight f4 [32]
000000 68 a0 7b 3f 17 b2 88 3f 6e ad 80 3f 6a 79 7c 3f
       0.98291636 1.0679349 1.0052927 0.98622763
000010 8f b0 87 3f f7 d7 78 3f e7 fb 82 3f d5 ec 72 3f
       1.0600756 0.97204536 1.0233124 0.94892627
000020 b2 12 7a 3f 2f 1f 83 3f c3 38 7b 3f 90 70 7b 3f
       0.97684777 1.0243891 0.98133487 0.9821863
000030 17 df 73 3f bb 5c 7c 3f 59 45 7b 3f 65 52 85 3f
       0.95262283 0.98578995 0.9815269 1.041577
000040 41 91 82 3f 26 9e 82 3f 4b 5c 83 3f 11 2e 7b 3f
       1.0200578 1.0204513 1.026254 0.98117167
000050 eb b5 7c 3f 3c 81 79 3f 6a af 7c 3f 88 bd 73 3f
       0.98715085 0.9746282 0.9870516 0.95211077
000060 8f 6d 71 3f 46 e2 82 3f bc f8 74 3f 98 6e 87 3f
       0.943078 1.0225303 0.9569204 1.0580626
000070 60 af 82 3f b7 69 79 3f 3d a8 7a 3f c6 9e 82 3f
       1.020977 0.97426933 0.9791296 1.0204704

feature_layer.8.bias f4 [32]
000000 b7 80 66 bd 07 0e a4 3b 0c 9b 19 bd 28 92 91 bd
       -0.056275096 0.005006555 -0.03750138 -0.07107955
000010 ff aa cc 39 ee 3e 92 bd 72 03 3a bd d9 61 8b bd
       0.00039037314 -0.07140909 -0.045413442 -0.06805772
000020 2f 3a ca bc 85 bb e0 bc ad 09 7e bc 47 e0 88 bc
       -0.024685947 -0.027433166 -0.015505237 -0.016708506
000030 71 51 08 bd 33 82 ce bd a1 85 8f bd d2 11 a0 bd
       -0.033280794 -0.10083427 -0.070079096 -0.07815899
000040 ec a0 0b 3c a9 b3 bc bd 42 bd 98 3c 91 a4 65 bc
       0.0085222535 -0.09213955 0.018644933 -0.0140162865
000050 ee 54 48 bd c0 76 0f bd ed e5 bc 3b eb e4 4f bd
       -0.04890912 -0.03502536 0.005764714 -0.050755423
000060 79 d0 53 bd 76 3c 24 3d 94 63 75 bd dd 43 86 bd
       -0.051712487 0.040096723 -0.05990942 -0.06555913
000070 bd dd 45 bc e3 09 b3 bd 07 12 43 bc 22 5f 8a bd
       -0.012076792 -0.0874212 -0.0119061535 -0.067564264

feature_layer.8.running_mean f4 [32]
000000 9d 2c 73 be a3 1c 25 bd 71 97 05 bf 24 d3 38 bf
       -0.23747487 -0.040310513 -0.52184206 -0.72197175
000010 ba cc b1 bf d4 7e 07 be 11 a8 31 3e 4a ac 65 be
       -1.3890603 -0.13231975 0.17349268 -0.22429004
000020 a8 e9 21 bf 45 7b 83 be d8 6b 8b 3f 7c 7f 51 bf
       -0.63247156 -0.25679985 1.0892286 -0.8183515
000030 fd 1e b2 3d fd 04 34 3e bd 79 04 3f 8d a3 26 bf
       0.08697317 0.17580028 0.5174826 -0.6509331
000040 f7 7e 39 be 91 82 89 be e8 54 7b bf 97 1d c9 3e
       -0.1811484 -0.26857427 -0.9817643 0.39280388
000050 86 df 15 bf 9b 05 32 bf 7d 32 d3 bd 4a 21 d1 3e
       -0.58544195 -0.69539803 -0.10312364 0.4084571
000060 fb 0f ff be 97 a9 48 bf 4d cd 7a 3c 4b d9 3d 3d
       -0.4981688 -0.78383774 0.015307737 0.046349805
000070 80 c9 a4 be c7 ac 8c bf 7b be 1f bf bd b1 ba be
       -0.32184982 -1.0990227 -0.62400025 -0.3646373

feature_layer.8.running_var f4 [32]
000000 41 bb 7b 3e f4 ba ce 3e df 39 95 3e 77 33 21 3f
       0.2458315 0.4037701 0.29145715 0.62969154
000010 0f 99 17 3f 60 d2 ab 3e f7 f0 e4 3d bf 34 c7 3e
       0.59217924 0.3355894 0.11178773 0.3890743
000020 5d fd 4e 3f e0 4c 59 3f 50 ad 32 3f 83 61 0b 3f
       0.8085535 0.84882927 0.69795704 0.54445666
000030 4d 2b 77 3e d2 5a f6 3e 7d a6 e5 3e 31 9f 9a 3d
       0.24137612 0.48116165 0.44853583 0.075498946
000040 81 5c a1 3e 09 f5 4d 3e b1 ee 31 3f e3 1c 72 3e
       0.31515887 0.20113005 0.6950484 0.23643832
000050 02 c3 e2 3e c9 61 ae 3e 33 30 9e 3e 37 58 eb 3e
       0.44289404 0.3405898 0.30896148 0.4596574
000060 90 67 83 3f d5 91 b0 3e f0 19 b7 3e ff aa d3 3d
       1.026598 0.3448626 0.35761976 0.10335349
000070 7c ae 65 3e 9d 86 24 3f 35 58 b8 3f 94 54 83 3e
       0.22429842 0.64267904 1.4401919 0.25650465

feature_layer.10.weight f4 [32, 32, 3, 3]
000000 3f 8f 28 bd 82 3e 2a bd 5d 0c 1d 3d c5 89 0b bd
       -0.041152235 -0.04156352 0.03834187 -0.034066934
000010 9e ef 2f bd 91 91 03 bd 27 4c 16 3c 76 99 c7 3c
       -0.042953126 -0.032121245 0.00917343 0.024365168
000020 9c e2 c1 3c ab 77 55 bc 85 c3 d2 3c 62 0e b4 3c
       0.023667626 -0.013029019 0.025727997 0.021979515
000030 ed 23 d2 ba 55 cf ae 3d cb fc 66 3c 17 99 a6 3d
       -0.0016032435 0.08535639 0.0140983565 0.08134668
000040 9e ed 7d 3c 79 ed bf 3c f2 7f e6 bc 68 b9 63 bd
       0.015498547 0.023428665 -0.028137181 -0.05559674
000050 ab 7b 87 3c fa 9e 03 bd 41 a8 91 3c 81 70 7a bd
       0.016538462 -0.032134034 0.017780425 -0.06114245
000060 74 5f 80 3b 46 83 3f bd 17 e7 a2 bc 68 ab 9b bc
       0.003917629 -0.04675605 -0.019885583 -0.019002631
000070 e3 ed 0b bd 07 e0 02 bd 9d 02 c7 bc d0 1a 95 bb
       -0.034162413 -0.03195193 -0.024293238 -0.0045503154
000080 fe 9e 5a bd ba c9 81 3c 06 f9 16 bd 85 3a 19 bd
       -0.053374283 0.015843261 -0.03685858 -0.037409324
000090 b6 0b 96 3c 74 e5 60 bd 0c 9f 64 bd ca d7 e0 bc
       0.018316131 -0.054906324 -0.05581574 -0.027446646
0000a0 80 9b a5 bd 73 f0 96 bb 78 ea 03 3d ff 87 21 bd
       -0.080863 -0.0046063005 0.03220603 -0.039436337
0000b0 65 2e 69 3c da e7 f2 ba b3 fb 2b 3b 98 9c 56 bb
       0.014232253 -0.0018532232 0.0026242554 -0.0032747146
0000c0 d8 10 67 bd fc 52 6d bd f5 76 ee bc 02 de 89 bc
       -0.056412548 -0.05794047 -0.029109458 -0.016829494
0000d0 70 f2 80 bd 26 1d a4 3c 7d 74 35 3b 6e 66 f5 ba
       -0.06296241 0.02003343 0.002768784 -0.0018722543
0000e0 0a 48 51 bc de fc 2b 3b 09 b4 01 3d e6 d0 09 bd
       -0.012773523 0.002624325 0.031665836 -0.033646487
0000f0 0b de 03 bd da c3 52 bd 7b e2 5b bd f0 da 2a bc
       -0.03219418 -0.05145631 -0.053682785 -0.010428175
000100 33 78 89 bd 3d e0 b3 3c 66 4a 41 bd df 8a d2 ba
       -0.06712379 0.021957511 -0.047190093 -0.0016063115
000110 c2 ed 5d bd 45 78 26 3d 73 9a d8 3c b2 50 7e bc
       -0.05418182 0.04064204 0.026440835 -0.015522169
000120 93 1c 9f bd 87 5a 10 bd b4 67 06 bc 98 24 ca bb
       -0.07769122 -0.035242584 -0.008203436 -0.006168913
000130 75 d8 36 3b b2 99 45 3c aa 0b 4e 3c 64 96 b9 3b
       0.0027900015 0.01206057 0.012576023 0.00566368
000140 9a 9c 96 bc 74 a4 76 bd eb 2e dc bb a6 c6 ca 3c
       -0.01838522 -0.06021543 -0.0067194602 0.024752926
000150 49 b0 36 bc 18 1e 90 3d 25 33 7f 3d 88 fa 17 bc
       -0.011150428 0.0703699 0.062304635 -0.00927604
000160 be ef c3 3c e2 fa e6 3c c1 99 d1 3c e1 b0 86 bd
       0.023918029 0.028195802 0.02558601 -0.06576706
000170 2f a4 6a 3a 1f de ba bd c3 de 3a bc 5f ad 0d bd
       0.0008950857 -0.091243975 -0.01140565 -0.034589168
000180 a4 e2 ca bc ca 38 03 3d 66 c0 1a 3c 83 04 ff bc
       -0.024766274 0.03203658 0.009445285 -0.031130081
000190 24 08 8d 3d 12 38 a3 3d 45 95 86 3d 57 7b 08 bc
       0.06886318 0.07969679 0.0657144 -0.008330188
0001a0 c4 ae f6 ba 67 3b 5c bd 4c 69 c0 bd 6d 84 12 3d
       -0.0018820395 -0.053767588 -0.09395084 0.035770822
0001b0 9c 7b 11 3c 97 ca ab 3b 6d 09 c2 bc 4d 79 a8 3c
       0.008879568 0.0052426565 -0.023686135 0.020565653
0001c0 60 8e 3b bd d2 aa 82 3c 41 92 e0 3c 1d 5d 8a bd
       -0.045790076 0.015950594 0.02741349 -0.06756041
0001d0 cf 4a d3 3b 70 f5 20 3d 86 c4 56 3d 06 16 7c bb
       0.006448127 0.039296567 0.052433513 -0.0038465275
0001e0 f3 47 fc bc 6e 0b 83 bc 31 5c 7c bc ac 86 0e bd
       -0.030796027 -0.015996661 -0.0154028395 -0.0347964
0001f0 71 0b bc bc 27 19 7a bc d4 de a3 3c 83 dd cb 3c
       -0.022954674 -0.015264786 0.020003714 0.024885898
000200 7a bc 14 bd f3 ad 10 bd 92 e7 2c bd 8d d7 31 bd
       -0.036312558 -0.03532214 -0.04221303 -0.043418456
000210 54 5a 0f 3c 81 71 c8 bc f1 55 2c 3d d7 35 9d 3c
       0.008749563 -0.024468185 0.042074148 0.019190712
000220 86 9a 08 bd 19 87 89 bc 5d 83 81 3d 5d 27 35 3d
       -0.03335049 -0.016788052 0.06323884 0.044226993
000230 8b 43 8c 3d 4c a4 8a bd 9c 67 36 3c 57 8c 8c bd
       0.0684882 -0.067696184 0.011133101 -0.06862705
000240 8e c8 90 3d 6c 2b ce 3c 31 2d c5 3d 7f ed 72 bd
       0.07069503 0.02516719 0.0962776 -0.059308525
000250 bb 35 2e bd 6d 2f a6 bd 2a 57 78 bd 8d 3a d1 bc
       -0.04253171 -0.081145145 -0.06063 -0.025540615
000260 ae 6c b4 3c dc 37 31 3c dd c3 08 3b 74 bf 88 3d
       0.022024479 0.010816541 0.0020868697 0.06677142
000270 bc f6 83 bd 1f 34 77 bc c0 e0 01 3d 00 1c 98 bd
       -0.06443545 -0.01508811 0.03170848 -0.074272156
000280 32 0b 98 bd 93 2e 96 3c 16 6f ef 3c 59 20 51 3d
       -0.0742401 0.018332755 0.029227775 0.05105624
000290 5d 72 0d bd d8 6b 21 bd 62 85 e7 bb a9 b7 5f 3c
       -0.034532893 -0.03940949 -0.007065461 0.013654628
0002a0 10 64 d6 3c 3f a4 13 3d f5 79 52 3d c3 a7 91 bd
       0.02617076 0.03604531 0.05138584 -0.07112076
0002b0 0d 67 ef bb ae e0 04 bc c2 43 00 3c 84 5a 17 bd
       -0.007305986 -0.008110208 0.007828655 -0.036951557
0002c0 2b b9 3b bd c0 db 4f 3d 3a ab 21 3d 3e 0d 0a bc
       -0.045830887 0.05074668 0.039469935 -0.008426009
0002d0 02 e5 52 3c 6f dd 0f 3d f0 28 50 3a d3 6e cb 3c
       0.0128719825 0.035123285 0.00079406705 0.024833119
0002e0 1c e8 6f bd d7 18 23 3d 4a 12 54 bd bd c3 c6 bd
       -0.058570966 0.03981861 -0.051775254 -0.09705303
0002f0 1d 3c b1 bd 19 a7 b2 3b 33 17 11 bc 7b 8f 6d 3c
       -0.08654044 0.0054520485 -0.008855629 0.01449954
000300 69 62 04 bc bf 1d 1b bd 02 62 8a bc 6b b8 64 bc
       -0.008080103 -0.037870165 -0.016892437 -0.013959984
000310 e3 88 a9 bb 8a 61 cf 3c cc 6a 8c bd f9 33 99 3b
       -0.005173789 0.025315065 -0.068563074 0.004675385
000320 39 30 70 bc bc b2 87 bb 06 a7 97 3b 20 f6 f2 3c
       -0.014659935 -0.00414118 0.004628065 0.029658377
000330 6c bd 02 bc b4 9b 95 bb 83 42 9a bd ee 26 d9 3c
       -0.007979732 -0.0045656804 -0.07532217 0.026507821
000340 b3 e1 a2 3c 8d cb 00 bc cd c6 7f bd d3 ef 2e bc
       0.019883012 -0.00786103 -0.06244545 -0.010677296
000350 67 68 58 bc c7 4f 40 bd e6 18 8e 3b 9d 93 a2 bc
       -0.013208485 -0.04695108 0.004336464 -0.019845778
000360 52 d2 02 bc c7 06 08 3d e0 0e 69 bc 9d 05 0a 3d
       -0.007984715 0.03320959 -0.014224738 0.03369676
000370 fe de 39 ba 50 16 7e 39 56 6a 05 bd 61 65 8a 3c
       -0.00070904184 0.0002423164 -0.032572113 0.016894044
000380 76 69 2a bd bd c3 a1 3c 48 40 8e 3d 01 1c 50 bc
       -0.04160448 0.019746656 0.069458544 -0.012701989
000390 0e af 1e 3d f7 33 15 bd 15 70 2b bc 8f b8 2e bd
       0.038741164 -0.03642651 -0.010463734 -0.042656478
0003a0 b5 a4 cb bd 19 24 1d bd 8d 4b 8f bd 11 75 1e 3d
       -0.09943525 -0.038364504 -0.06996832 0.038685862
0003b0 e9 6b 9b bc 47 99 04 3d 59 c1 3b bb 8e 3f c9 3a
       -0.018972354 0.03237274 -0.002864918 0.0015354024
0003c0 10 6c 16 bb b7 6b fd 3c 2b 35 6e bb db e3 4c bc
       -0.0022952594 0.030935152 -0.0036347609 -0.012505497
0003d0 2b 6d a2 3c 79 da 47 3c e4 55 e5 3c e4 6c 71 3d
       0.019827446 0.012198084 0.027995057 0.058941737
0003e0 67 2c ac 3c 01 7f c8 3d 57 c7 37 3c 9b 3e d1 3d
       0.021017266 0.09789849 0.01121696 0.10217019
0003f0 10 11 ef bc de be 39 3c ef 39 8e bc 91 71 29 bc
       -0.02918294 0.01133701 -0.01736161 -0.010342018

feature_layer.10.bias f4 [32]
000000 01 65 4e 3d 4d d8 03 bd 87 45 03 bd 6c 7d 80 3c
       0.050389294 -0.032188702 -0.03204873 0.015684806
000010 3e 04 68 3c 8c dc 99 bb 08 eb 0a bd 00 19 5b bd
       0.014161168 -0.0046954807 -0.03391555 -0.05349064
000020 a7 11 dd ba f7 db 4a bd 60 80 62 bc 50 b6 48 bd
       -0.0016866223 -0.04952618 -0.013824552 -0.04900199
000030 d2 cc 3e 3b d1 0e 55 3d b4 d8 e0 3c 18 b0 a4 3c
       0.0029113782 0.052016083 0.027447082 0.0201035
000040 27 5e 07 3d 94 36 04 3d c8 70 93 3d 82 d1 0d 3d
       0.033048775 0.032278612 0.07199246 0.03462363
000050 79 9d ce bc 84 eb 71 3d 74 03 ec bb 11 09 13 3d
       -0.025221573 0.059062496 -0.00720256 0.03589732
000060 6c be 3d 3d f2 6a 55 bd 0a 18 89 bb 54 08 90 bc
       0.04632418 -0.052103944 -0.004183774 -0.017582096
000070 e7 d8 0d 3c 3d 31 6d bc 03 01 e2 3c 9a 3c 42 bc
       0.008657671 -0.014477071 0.027588373 -0.011855269

feature_layer.11.weight f4 [32]
000000 d2 82 8a 3f 83 11 85 3f 00 76 8c 3f a5 7c 92 3f
       1.0821173 1.0395969 1.0973511 1.1444288
000010 37 13 8d 3f 12 93 8c 3f cd 73 8f 3f de cf 8f 3f
       1.1021489 1.0982382 1.1207215 1.1235311
000020 ce 49 8d 3f d9 4c 89 3f 57 a9 82 3f 0a fc 8f 3f
       1.1038148 1.0726577 1.0207928 1.1248791
000030 d1 a7 87 3f c5 04 81 3f 54 5b 7c 3f 77 0a 92 3f
       1.0598089 1.007958 0.98576856 1.1409444
000040 90 f9 89 3f 3e 9b 89 3f e6 c0 8e 3f 0a 66 93 3f
       1.0779285 1.0750501 1.1152618 1.1515515
000050 60 27 8c 3f 78 c9 89 3f 7e 85 89 3f 62 61 92 3f
       1.0949516 1.0764608 1.0743864 1.1435969
000060 d1 ad 8e 3f 39 a7 8e 3f 80 b2 8f 3f f3 0a 89 3f
       1.1146795 1.1144782 1.1226349 1.0706466
000070 ce 2d 90 3f cb 36 92 3f 8e 7f 8f 3f 4a b2 8b 3f
       1.1263978 1.1422971 1.1210802 1.0913785

feature_layer.11.bias f4 [32]
000000 90 9f cd 3b 08 e1 d0 bc 4b 59 95 bb d2 11 0d 3d
       0.006275125 -0.025497928 -0.0045577637 0.034440823
000010 d3 d3 a2 3c 08 98 a8 3c 03 61 40 3d 95 35 78 bc
       0.019876396 0.020580307 0.046967518 -0.015149494
000020 f8 94 e2 3c 61 3b 1f 3c 68 a1 f4 ba 08 d2 c4 3c
       0.027658924 0.009718747 -0.0018663825 0.024025932
000030 a4 e7 18 bb 40 91 8d bc 31 14 26 bd 89 26 bc bb
       -0.0023331428 -0.017281175 -0.0405466 -0.0057418984
000040 db a8 c4 3b 06 c8 c9 3c eb b8 96 bb 8a 6c 05 3d
       0.0060015745 0.024631511 -0.0045996807 0.032574214
000050 9e 8b d7 3c 37 17 84 ba fa 0f e3 3b ca a1 f7 3c
       0.026311692 -0.0010077719 0.006929395 0.030228514
000060 b0 a4 02 3c ef 34 c5 3b 41 47 39 ba e0 f1 ba bb
       0.007973835 0.006018273 -0.00070678076 -0.0057051033
000070 dc 17 74 3d 5a 53 05 3d 3e 09 6f 3c a7 01 e0 3b
       0.059593067 0.032550193 0.014589606 0.0068361345

feature_layer.11.running_mean f4 [32]
000000 bb 39 0a bf 0a 8d 72 3d 39 9a dd bc 7b b0 c9 be
       -0.5399434 0.059216537 -0.027051078 -0.39392456
000010 7e a9 5e be 52 78 45 3b 42 92 99 be ad f1 4b be
       -0.21744344 0.003013153 -0.29994398 -0.1991641
000020 0d 8c 62 be 36 01 c6 be b8 87 11 bf f7 fd bd be
       -0.22123738 -0.386728 -0.56847715 -0.37107822
000030 52 74 f5 3d 39 66 4f 3d 2a 49 21 be 6f 97 b6 3c
       0.11985077 0.050634596 -0.15750566 0.022289006
000040 88 93 20 3d e2 41 1a be 9e 49 9c 3d 44 41 29 3e
       0.039203197 -0.15064195 0.07631229 0.16528803
000050 f1 5b 96 bd 2c dc 57 bd ef cb 13 3d 2f 6f 2c be
       -0.07341755 -0.052700207 0.036083158 -0.16839288
000060 58 d3 21 be 5e c0 76 be e5 ea 7d be b4 c9 aa 3e
       -0.15803277 -0.2409682 -0.24796636 0.33357012
000070 00 f3 96 be 52 20 04 bf cf a5 40 be bb a8 88 3d
       -0.2948227 -0.51611817 -0.18813251 0.06672808

feature_layer.11.running_var f4 [32]
000000 e2 70 89 3e 92 ab d0 3d 1c e5 f5 3d 7a ce 28 3e
       0.26843935 0.101889744 0.1200659 0.16485015
000010 24 51 d2 3d 01 78 17 3e 39 89 cc 3d 15 0e 0a 3e
       0.102693826 0.14791872 0.09987111 0.13481934
000020 88 d6 56 3e ab 06 12 3e 1f d8 f4 3e f8 ae 12 3e
       0.20980275 0.14260356 0.47821137 0.14324558
000030 df cb e5 3d 4d 7b af 3e 0e 77 98 3e 9d cb 91 3e
       0.11220526 0.3427376 0.29778332 0.28475657
000040 ef 8b fe 3d 48 e9 ff 3d a8 28 09 3e 9c 20 f9 3d
       0.12429034 0.12495667 0.13394415 0.12164423
000050 9c bf 1d 3e c7 32 fd 3e 1c 3c 53 3e 8c e3 0d 3e
       0.15405124 0.49452803 0.20628399 0.13856333
000060 2d e6 e8 3d b2 1f 0d 3e fc cb 77 3e 30 f4 58 3e
       0.113720275 0.13781622 0.24198908 0.211869
000070 ca 5f 46 3e 97 09 3b 3e e9 db 18 3e 60 b0 0e 3e
       0.19372478 0.18265377 0.14927639 0.13934469

classify_layer.0.weight f4 [10, 1568]
000000 9e 3f 9f 3c 4f 3d b2 bc cd d1 7e 3c 74 59 0b 3c
       0.019439515 -0.02175775 0.01555295 0.008505214
000010 67 be 9d bc 1b 4c a3 3b 76 3d 23 3c 11 2d 0a 3c
       -0.01925583 0.0049834377 0.009963384 0.008433596
000020 0a 73 1b bc b3 66 6e bc 90 0d 90 bc 99 29 70 3c
       -0.009487877 -0.014550853 -0.017584592 0.014658355
000030 20 13 48 3b 58 b7 03 bb 5c db d0 bc f0 5d b3 bc
       0.0030528978 -0.0020098295 -0.025495224 -0.021895379
000040 8e 6a 14 3d 0d 15 6c 3c 16 64 80 3c 4b 2e f3 bc
       0.03623443 0.014409316 0.015672725 -0.02968516
000050 13 7c 51 39 a4 ed 73 3d 24 fa 55 3c 45 b9 ea 3c
       0.00019978014 0.059552804 0.013060126 0.028652797
000060 21 89 09 bd ce 00 02 3d a3 d8 6e bd aa f7 bf ba
       -0.033578042 0.03173905 -0.05831207 -0.0014645953
000070 38 fd 99 bb 8c c6 8d bd 1b 55 9f bb 36 b2 bd bc
       -0.0046993755 -0.069226354 -0.0048624403 -0.023156267
000080 4b f5 e8 3c 7c a2 c4 bb fc 68 bf 3c 10 35 d5 bc
       0.028437277 -0.006000815 0.02336549 -0.026026279
000090 ff 58 9b bc 8e aa d2 bc f5 db ad 3c 9c 62 8f bc
       -0.018963335 -0.025716092 0.021223048 -0.017503075
0000a0 06 72 05 3d cb f9 c0 3c 8b 64 a2 3c 38 6e a8 3c
       0.032579444 0.02355661 0.019823333 0.020560369
0000b0 14 4b 6c bc 17 fe 4d 3c ab fc d4 3c f7 ab bd 3c
       -0.014422197 0.012572787 0.025999388 0.023153288
0000c0 18 52 d9 bc d3 96 41 3c a5 fd 7c 3c fb 5c 0c 3d
       -0.026528403 0.011815744 0.015441333 0.03426836
0000d0 8b 10 b3 bc 3f 94 ed bb 21 31 97 bc e0 b9 e2 3c
       -0.021858474 -0.0072503383 -0.018456044 0.027676523
0000e0 73 6a a2 3c 79 d2 d8 3a 55 c4 13 bc a7 5d 71 3c
       0.01982615 0.0016542218 -0.009018977 0.014731801
0000f0 d8 4a 17 bc 99 e7 67 3c f8 b8 6e bc 17 4d e7 3c
       -0.009234153 0.014154338 -0.014570467 0.028235001
000100 9c d5 fb bb 5d fa 95 bb 65 cd b6 bc 8f 1a fa bc
       -0.0076853763 -0.004576965 -0.022314737 -0.030530242
000110 86 dc 95 bb d6 ba 39 3c 8c 3d ef 3c a0 dc 6f bd
       -0.0045734076 0.011336049 0.029204153 -0.058560014
000120 8e 06 ff ba 6c 26 21 bd ee 5d 74 3c ac 8b f0 3a
       -0.001945691 -0.039343283 0.014914973 0.0018352172
000130 e2 fd 3c bd 3a 75 14 bb 37 dd aa b9 c0 12 72 bb
       -0.04614056 -0.002265288 -0.00032589745 -0.0036937445
000140 e0 84 8c 3b f3 4b c7 3b 41 ec 8b 3c 76 b7 9e 3c
       0.004288301 0.006082052 0.017080428 0.01937459
000150 27 d3 54 3c 81 e2 57 3c 08 dc 2a 3c 27 50 0d bc
       0.012989796 0.013176561 0.010428436 -0.008625067
000160 e9 7b 50 bc 21 5a 4f bc 8c dc 7d 3c 33 aa 6c 3c
       -0.012724855 -0.012655766 0.015494477 0.0144448755
000170 70 6e 74 bc 99 a8 e5 3c 1c cf 3d 3c 26 05 86 3c
       -0.0149189085 0.028034495 0.011585023 0.016359877
000180 de 46 c6 bc 7c 38 61 3b ab 18 95 3a d3 01 99 3c
       -0.024203714 0.0034365943 0.001137515 0.018677628
000190 ae 5c a0 3c 61 c2 d5 3c 1e 81 0d 3d c8 74 94 39
       0.019575443 0.026093664 0.034546964 0.0002831577
0001a0 45 95 a8 3c 21 dc bd bc f4 af 66 3c 3c 71 ef bb
       0.02057899 -0.023176255 0.014080036 -0.0073071998
0001b0 78 73 3c bc 3e 34 41 bc d7 aa c7 3c c0 17 25 bd
       -0.011502139 -0.011792241 0.024373455 -0.040305853
0001c0 e6 a7 05 3c e2 cb d8 bc d7 ea dc 3c 77 dd 84 bc
       0.008157706 -0.026464406 0.02696745 -0.016218884
0001d0 41 82 93 3c 58 1b 35 bb 44 e4 0a 3d 8d c1 36 3d
       0.018006446 -0.0027634706 0.033909097 0.04461818
0001e0 45 ff f8 bb 57 59 e8 3c 95 c7 ad bd 1e 6e 61 3d
       -0.00759879 0.028362913 -0.08485333 0.055036657
0001f0 d8 27 f8 3b 7f 29 96 3b 21 e0 2d 3d bf 28 13 3c
       0.007573109 0.0045825834 0.042450074 0.008981883
000200 4f 78 28 3c 69 66 02 bd 0d e3 da 3c 70 5b 6a bc
       0.01028259 -0.031835947 0.026719594 -0.014304027
000210 16 c2 09 3d 42 cb a3 3c aa 97 7a 3c aa f3 23 3c
       0.03363236 0.019994382 0.015294949 0.0100068245
000220 d6 1c e5 3b c5 c7 7e 3c 4f e2 92 3b 5f 76 19 bc
       0.006991963 0.015550558 0.0044825445 -0.009366601
000230 ed 68 d9 bc 88 18 16 bc be 30 a1 ba 2f 13 39 3c
       -0.02653929 -0.009161122 -0.0012297851 0.011296078
000240 1c 13 9b bc 13 22 3f bc e4 ad f4 bc 6d 3b 29 3c
       -0.01893001 -0.011665839 -0.029868074 0.01032911
000250 3e 46 04 bd 53 c8 f0 bb 6a db dc 3c a0 1f ad bc
       -0.03229355 -0.0073480993 0.026960094 -0.021133244
000260 c2 ba 8c ba f8 03 00 bd 4f 8a b8 bb ed b6 25 3c
       -0.001073681 -0.031253785 -0.005631722 0.010114414
000270 32 6e c3 bb ee 45 b0 3b 49 01 b3 3c 81 a2 d4 3c
       -0.005964064 0.00537943 0.021851199 0.025956394
000280 1d 4f 3b bd 39 67 21 3d 62 9f 11 ba 33 77 a8 3c
       -0.045729745 0.03940508 -0.0005555061 0.020564651
000290 06 c9 57 bd 7f d1 98 3b a1 5b ef bc d9 ef 09 3d
       -0.052681945 0.0046636458 -0.029218497 0.033676002
0002a0 05 14 3c 3d d6 de 83 bd 31 53 20 3d 97 c5 6d bd
       0.04591753 -0.06438987 0.039141838 -0.058049764
0002b0 e5 f7 d8 3a 61 46 7d ba 6d 06 fc 3c 9d 96 98 3c
       0.001655337 -0.00096616714 0.030764783 0.018626506
0002c0 40 f9 6f bd 3b f3 94 3c 2b 93 4d bd df 66 39 3d
       -0.058587313 0.018182388 -0.05018918 0.04526412
0002d0 3c 6c 7c bd 12 01 5b 3d 4a 57 d0 3b 9e ed cb 3c
       -0.061626658 0.053467818 0.006358062 0.024893578
0002e0 bb 86 05 bc 6b c5 9d 3c f8 74 eb bb 3b e6 08 3d
       -0.008149798 0.019259175 -0.0071855746 0.03342269
0002f0 b5 d8 c2 bc 74 52 a3 bc 27 ce 15 3b b5 74 d9 3c
       -0.023784975 -0.019936778 0.0022858472 0.026544908
000300 6c 52 27 3b 14 47 d4 bb fc d4 c8 bb 72 61 f8 bc
       0.0025531305 -0.0064781997 -0.0061289053 -0.030319903
000310 df 52 1e 3b 19 11 05 bd a4 bd e6 3c 98 41 9f 3c
       0.0024158282 -0.03248701 0.0281666 0.019440457
000320 d8 f4 86 3c 6d e7 0f bc 1e 3e 79 bb b2 d8 82 bc
       0.016474172 -0.008783204 -0.003803141 -0.015972469
000330 5b 10 84 b9 ae 93 52 3c 91 5d d6 3c e2 b9 fd 3c
       -0.00025189188 0.012852592 0.026167663 0.030972425
000340 88 00 34 bb 90 bb 10 3b 3e bf 9f 3c 4b 09 90 bc
       -0.0027466137 0.0022084452 0.019500371 -0.017582556
000350 36 53 ea bc ca e9 1b bd 07 9c a7 bc cf 45 58 bd
       -0.028604131 -0.038064755 -0.020460142 -0.05280095
000360 e3 c4 b4 bc 0f aa a4 3c 0f d1 ab bd 46 36 d8 3c
       -0.02206654 0.020100622 -0.08389484 0.026393067
000370 dd e2 8a bd cd e2 86 bc 57 4b f7 bc e0 e6 57 bc
       -0.06781552 -0.016465569 -0.030187292 -0.0131776035
000380 68 4a 07 bc 95 af 23 bd 1b 73 0e bd 10 a8 a8 bc
       -0.008257486 -0.03996237 -0.034777742 -0.020587951
000390 05 7d ce ba 79 02 34 bd 41 12 00 3d cb 38 30 3c
       -0.0015753811 -0.04394767 0.03126741 0.010755728
0003a0 79 e6 aa ba 9e de c1 3c 98 fd e3 3b 99 03 f6 3c
       -0.0013038657 0.023665722 0.006957721 0.030031012
0003b0 00 f8 ac 3c f4 b1 76 bc 24 72 62 3c 78 48 d2 3c
       0.02111435 -0.015057076 0.013821159 0.025669321
0003c0 73 51 fa 3a d1 b3 bd 3c fe 82 a2 3c 5d b1 e4 3c
       0.001909776 0.023157032 0.019837853 0.027916605
0003d0 29 83 85 bc e4 5e 80 bc 58 f7 30 3c b8 54 e7 bb
       -0.016297894 -0.015670247 0.010801159 -0.00705966
0003e0 d5 13 38 bc 67 60 00 bc 64 05 8a 3b e2 f9 23 bb
       -0.011235197 -0.007835484 0.0042120684 -0.0025020768
0003f0 83 6c a3 3c a9 a3 cf 3c d2 56 e5 3b cf c3 dc 3c
       0.019949203 0.025346594 0.006998875 0.026948838

classify_layer.0.bias f4 [10]
000000 d8 7e 0b 3a 2a e5 05 3c 31 25 fb bc 68 f5 fa bc
       0.00053213304 0.008172313 -0.030657383 -0.030634597
000010 ef 78 37 3c f6 02 8d bb 7c f4 44 3a 87 75 e0 bb
       0.011198266 -0.0043033315 0.00075132377 -0.006849948
000020 09 90 44 bc ba 1f 91 bc
       -0.011997231 -0.017715324
